heart_attack_prediction_model (2).tflite (tflite, 13792 bytes, 5 tensors)

sequential/dense/BiasAdd/ReadVariableOp/resource f4 [64]
00000000: 0000 0000 fd5a 32bc 38c8 893b 3f65 413b
00000010: 44a1 3dba 0000 0000 0000 0000 0000 0000
00000020: 0000 0000 0000 0000 cb93 c1bc 0000 0000
00000030: 0b17 38bc 0000 0000 7c06 cc3b 0000 0000
00000040: b560 3ebb 0000 0000 597b 37bc 17b4 c7bb
00000050: a292 eabb 0175 9fbc f107 94bc f13a 44bc
00000060: 06a0 87bb 0000 0000 7c4a 10bc d216 90bc
00000070: 0000 0000 acaa b23b 8adf 1bbb b689 00b9
00000080: a576 d8bc 921f 843b ad3f 06bb bcc0 afbb
00000090: 21d5 8b3b d930 d9ba 0000 0000 1470 8039
000000a0: 0000 0000 4244 463b 1705 913c f749 95bb
000000b0: e181 73ba a22d e63b eeb9 72bb 0000 0000
000000c0: 341e 763c 0000 0000 0000 0000 2678 903b
000000d0: 7a72 8b3b 0000 0000 0f5f f13b b9d8 30bc
000000e0: 0000 0000 3a7c 3abb 0d77 34ba 93d9 2abc
000000f0: 0000 0000 382a 3b3b 48ac bbba 5713 293c
0.0 -0.010885951 0.004204776 0.002950981 -0.0007233808 0.0 0.0 0.0
0.0 0.0 -0.023630043 0.0 -0.011235963 0.0 0.006226359 0.0
-0.002904934 0.0 -0.011198842 -0.0060944664 -0.0071585933 -0.019464971 -0.018070193 -0.011976943
-0.0041389493 0.0 -0.008806821 -0.017589007 0.0 0.0054524746 -0.0023784363 -0.00012258333
-0.026423762 0.004032084 -0.002048473 -0.005363552 0.0042673503 -0.0016570344 0.0 0.00024497567
0.0 0.0030253087 0.017702622 -0.0045559364 -0.0009289068 0.007024483 -0.0037037092 0.0
0.015021849 0.0 0.0 0.004408854 0.00425559 0.0 0.007366068 -0.010793858
0.0 -0.0028455392 -0.0006884195 -0.01042785 0.0 0.00285591 -0.0014318312 0.010319552

sequential/dense_1/BiasAdd/ReadVariableOp/resource f4 [32]
00000000: 63b0 973b e1fa 0abc 0000 0000 0000 0000
00000010: 0000 0000 9982 f8bb 6788 a1bb 0000 0000
00000020: 7888 633b 0000 0000 71d9 a4bb e4b5 323a
00000030: 0000 0000 39fd d33a 04da 30bc 0000 0000
00000040: 85c1 1c3b 159e 993b 0000 0000 87e3 a0bb
00000050: 4ded f02c ba8f 92bb 6c63 a7bb 28d4 8d3b
00000060: 0000 0000 0000 0000 0000 0000 7026 953b
00000070: d7a7 1cbc 97e5 073b baca 32bc 4cdc 29bc
0.004629181 -0.008482666 0.0 0.0 0.0 -0.007583928 -0.0049295905 0.0
0.0034718793 0.0 -0.005030804 0.0006817265 0.0 0.0016173489 -0.0107941665 0.0
0.0023919058 0.0046880343 0.0 -0.004909936 6.847556e-12 -0.0044727 -0.0051082876 0.0043282695
0.0 0.0 0.0 0.0045517012 -0.0095615005 0.0020736211 -0.010912592 -0.010367464

sequential/dense/MatMul f4 [64, 13]
00000000: 6a10 2ebe 9eb5 733e 00f4 583b 269d 9fbd
00000010: a049 f4bc 6006 c5bd c4f5 ba3d e08f 5dbd
00000020: 46cf 6e3e f825 f93d bcb9 75bd 0044 e53d
00000030: 84a8 92bd 88b8 603e 3da5 efbd 7bdb ca3d
00000040: 4cf6 91be 809d 413e 6d5f 00bd 7207 c23d
00000050: 1bdf efbd 00fc 83bd 92e7 053e da54 663e
00000060: c3a5 21be 73e3 1fbd c010 6fbe 913f cf3c
00000070: 53ae 463d ca99 b63d 46b8 18bd d077 40be
00000080: 7ec5 533e 4833 023e 2c69 9cbe 2485 85be
00000090: 9506 9f3d f47d 073e 6b6b 863d 2afa 2ebe
000000a0: 32e1 f9bc 1f16 f9bd 126e 0e3e d6cf 053e
000000b0: 127b f33c 19bc 45bd 2696 0d3e 5527 713e
000000c0: d37f 8dbe b784 42be 6df1 82bd 42dc ea3c
000000d0: 26e1 163d d03f 993d bcdd 333e 549f 243d
000000e0: ceaf 1d3e 5189 263e 2be2 b23d 0f00 b83d
000000f0: 957e 6b3e 4845 123e ab1e 69be 4ff8 27bd
00000100: ca76 a33d 52d5 2a3e fc9b 55be ce87 84bd
00000110: 980d 4e3e 7add 63be 8ca3 f5bd c0ac 4bbc
00000120: 5620 50be cddf 70be 337f 82be de45 393e
00000130: 989f 6b3d 0387 823e 5882 1cbd 84e0 20be
00000140: c469 f33d 790e 80be cca1 33be 003c 6aba
00000150: 7b90 09be e635 8dbe da89 cebd ae22 f5bd
00000160: b846 163e ac68 73be 36a9 6b3e 685a 903d
00000170: 2e73 073e d606 6d3e 80b6 79bb 5865 02be
00000180: 4a66 a8bd 38b4 363e 8022 b2bd 1aa2 003e
00000190: 0002 283a 0e47 70be 205f ad3c 749c 833d
000001a0: b28a 4cbe deef 363e 0a4c 743e 3425 56bd
000001b0: be6a 89be 8065 0a3e a84d eabd 34ba e63d
000001c0: ea95 9ebd 3a11 663e b29e dfbd 34c3 4d3e
000001d0: b8ae ff3d 1209 723e b493 4e3e b025 2dbe
000001e0: a41a 28bd 7e0a acbd c601 68be 205c 9f3c
000001f0: df7d 89be d022 ccbc e442 223e c8ca e43d
00000200: ef20 823e a42e 32bd 2fac 0e3e 8f5c 5c3b
00000210: 7535 4a3e 5363 d1bd 97ec 31be f706 14be
00000220: 3099 803e 2986 413e c613 69bd e029 3bbe
00000230: 12f3 243e d152 9ebd 5fe3 fbbd 95c9 56be
00000240: fc8c f73d 909b 41bd 4e56 6b3e 86f3 4bbe
00000250: 41eb 8a3e 38c2 dc3d 6055 19bc 8026 55be
00000260: 5a5b 4ebe 4243 5fbe 9435 283e 7042 d3bc
00000270: 43b4 893d 8e27 85be ed8f 0abd 8c59 253e
00000280: bdcc 7fbc 70d7 2b3d 24d0 363e 72cc 05be
00000290: a34d 823d 1591 263e 0659 dcbc 4b25 e0bd
000002a0: 8a51 b23c 5482 ad3d c0fe dfbc 90f0 ddbd
000002b0: 1881 373e 0999 85be 02e7 49be 9a71 643e
000002c0: 60c7 65bd fa68 bbbd 2ce1 143e 8079 f93c
000002d0: 0072 13bb bad6 1ebe 9259 35be 53ec 513e
000002e0: 0b56 89be 6923 843e cf05 323e 8582 083d
000002f0: 9f7d b6bd aead 203e c3f7 6f3e 92c0 483d
00000300: 75ef 213e 52a3 7f3e e0da 523e e881 343d
00000310: f8b3 5e3e 44a9 4cbd 82bc 0dbe 9476 8bbd
00000320: e0a4 573c 6ce6 fe3d 44b1 c63d dcf8 283e
00000330: d02d 49bd f862 8cbe cc37 a03d 8ef9 fbbd
00000340: d314 16be 7525 593e c14f 87bd 746a 613e
00000350: e975 093d cfbc 8f3d 626f 6b3e 2088 5a3c
00000360: be6e 3d3e 8a0b 4f3d 1fbc 263e 134a 7cbe
00000370: ed0e ab3d 669a 4fbe d2e2 0abe e40e fd3d
00000380: 4817 8ebd 1857 b6bd ccda ca3d 1cd0 c43d
00000390: 683a b23d ee38 743e 60ae 103c d0d3 aebd
000003a0: f00b f83c c6f5 6cbe 972a 40be f484 643d
000003b0: 99ec 87be 4a22 813c 16b0 20bd d54b 3bbe
000003c0: 0913 6dbe b84b b13d fd2f 4a3e 860d 32be
000003d0: 35a7 b9bd e238 933c 52f5 463e a239 f53d
000003e0: 1d10 cabd 78be 89be 5bbc 05be 28bc 5c3e
000003f0: e243 7d3e 8a62 6d3e 4f28 d9bd 26f3 07be
-0.16998449 0.2379975 0.003310442 -0.077936456 -0.029820263 -0.096203566 0.09128907 -0.054092288
0.23321256 0.12165445 -0.059991583 0.111946106 -0.07161048 0.21945393 -0.117014386 0.09905144
-0.28508222 0.18907738 -0.031341005 0.09474076 -0.11712476 -0.064445496 0.13076618 0.22493306
-0.1578589 -0.03903527 -0.23346233 0.025298866 0.048506092 0.08916052 -0.03728511 -0.18795705
0.20680806 0.12714875 -0.3054899 -0.2607814 0.07764927 0.13231641 0.06563457 -0.17087618
-0.03050289 -0.121624224 0.13909176 0.13067564 0.02972177 -0.048275087 0.13826808 0.2355016
-0.27636585 -0.18995939 -0.063937046 0.02866948 0.036835812 0.074828744 0.17565054 0.04019101
0.15399095 0.1626332 0.08734544 0.08984386 0.22997506 0.14284241 -0.22765605 -0.04100829
0.079816416 0.16682938 -0.20860285 -0.06471215 0.20122373 -0.22252455 -0.11994085 -0.0124313235
-0.20324835 -0.23522873 -0.2548767 0.18093058 0.057525247 0.2549363 -0.038210243 -0.15710646
0.118854076 -0.25011042 -0.1754219 -0.00089353323 -0.13434021 -0.27580184 -0.10084887 -0.11969505
0.14675415 -0.23770398 0.23013768 0.070484936 0.13227531 0.23147139 -0.0038103163 -0.12733972
-0.08222635 0.17842185 -0.086979866 0.12561837 0.00064089894 -0.23464605 0.021163523 0.064263254
-0.19974783 0.1786494 0.23857132 -0.052281573 -0.2683925 0.13515282 -0.11440593 0.11265984
-0.077434376 0.22467509 -0.109189406 0.20093995 0.12484497 0.23636273 0.20173532 -0.16908908
-0.04104103 -0.08400439 -0.22656927 0.019453108 -0.26853845 -0.024918944 0.15845829 0.1117149
0.2541575 -0.04350151 0.1393287 0.0033624505 0.19746955 -0.10224023 -0.17375408 -0.14455782
0.25116873 0.18898834 -0.056903623 -0.18277693 0.16108349 -0.0773064 -0.12299227 -0.20975335
0.120874375 -0.047267497 0.22982141 -0.19917116 0.2713261 0.10779232 -0.009358734 -0.20815468
-0.20152035 -0.21803 0.16426688 -0.025788516 0.06723835 -0.2600674 -0.033828665 0.1614744
-0.015612778 0.041953504 0.17852837 -0.13066271 0.06362464 0.16266282 -0.026897918 -0.10944613
0.021767396 0.08472124 -0.027343154 -0.10836899 0.17920339 -0.2609332 -0.19717029 0.2230896
-0.056098342 -0.09150882 0.14539021 0.030453444 -0.002249837 -0.15511599 -0.1770995 0.20500307
-0.26823458 0.25808266 0.17385028 0.033327598 -0.08910679 0.15691254 0.23434357 0.049011774
0.15814002 0.24964646 0.20591307 0.0440692 0.2174834 -0.04996611 -0.13841441 -0.06809726
0.013161868 0.12446293 0.097017795 0.16501182 -0.049115956 -0.27419257 0.078231424 -0.12303458
-0.14656381 0.21205695 -0.06607009 0.22013265 0.033559714 0.07018434 0.22991708 0.013338119
0.18499276 0.050548114 0.162827 -0.24637632 0.08352456 -0.20273742 -0.13563088 0.12356356
-0.06938034 -0.089033306 0.099050134 0.09610006 0.08702546 0.23849842 0.008830637 -0.08536494
0.03027913 -0.2314063 -0.18766247 0.055790856 -0.26547697 0.01576342 -0.03923043 -0.18290646
-0.23151793 0.0865702 0.19744869 -0.17387971 -0.09065095 0.01797146 0.1942952 0.11973883
-0.098663546 -0.2690313 -0.13060133 0.21556151 0.24732926 0.23182121 -0.106033914 -0.13276348

sequential/dense_1/MatMul f4 [32, 64]
00000000: a050 cf3d 2c83 70be f2ba ca3d 11a5 a1bd
00000010: e48c 033e a01f 42be a008 ff3c a487 4b3e
00000020: 684a f3bd 987b 88bd 5377 20bd 306b 193e
00000030: 8f44 df3d d0e3 693e 5519 b5bd 9032 42be
00000040: 9222 5b3e 002d 8d3d 5896 0d3d cb92 25be
00000050: 47c5 373e a359 82bd 53c9 c43c b46a a0bd
00000060: 2293 cebd 0088 13be 75cd f0bc 5003 35be
00000070: 6068 2cbe ef43 3abe 1d4e 47be ef46 9bbd
00000080: e29d 1f3d b090 76bd 2d4a f93d 2b5b 2cbe
00000090: 67bb c83d 4fe7 52be 585e 43be d778 92bd
000000a0: a01d c1bc 9043 0dbe 323d 03be a50d 193e
000000b0: e4aa f03c 6118 803e fac4 a3bd a086 be3d
000000c0: 9989 ebbd 700e dabd 4015 fd3c 9870 56be
000000d0: babf 4c3e c40b 01be c513 10bc 7b2e 2e3e
000000e0: 8090 87bb ed77 023e 52c2 efbd 6ab4 5b3d
000000f0: d015 a2bd 03a2 063e 99b6 943d 8159 6d3c
00000100: 44e5 4dbe ddef 67be 44cc 30be dcab 503e
00000110: 1595 65bc 80b5 14bd 7081 13bd 8400 55be
00000120: c46a 6a3e 8493 4f3e f562 8d3d e4df 30be
00000130: 7be1 e3bd 48f3 b2bd c044 66bd 4067 91bd
00000140: b2e6 943d a094 63bd 5e15 863d 48cd d0bd
00000150: a096 22bd 309f 973d 8004 a3bd f936 073e
00000160: 1329 90bc 10d8 923d 3364 43bd 7580 dcba
00000170: 883b 3f3e 1d03 6a3e 98a3 1e3e 91e9 95bd
00000180: 58dd 11be d7bc 963d a9ef 053e 52f5 34be
00000190: e3d8 edbd ddfa b53d 003a 3d3c 9929 c539
000001a0: d0b8 193e 19e9 d7bd 60dc a0bb d218 1b3d
000001b0: 466f 82be 31be f4bc 5767 1cbe 7067 50be
000001c0: 408e bb3c 1c08 033e 004f 0c3e ad39 a9b9
000001d0: 28ea 133d e079 d5bc 1353 64be 80ab 653e
000001e0: 109d de3d 0f40 a2bc 8188 56be 573d 87bd
000001f0: 14d0 073e e50d 753e 5cbf 4a3e f285 1b3e
00000200: 80e4 1bbd c44c 453e 00c8 f9bd 8c92 063e
00000210: 1028 4a3d 009c 4aba 7035 a43d f092 75bd
00000220: 5037 2e3d c891 6c3e f807 0e3e 70b8 e23d
00000230: c00d db3d e451 44be 20dc 24be 7064 693d
00000240: 704d 41be 800c 2a3c a856 2ebe 6475 30be
00000250: 8070 453d 8022 693d 1855 5dbe 70b2 573e
00000260: 1015 303e b8ca 71be 8080 e23b b07f 06be
00000270: 50e2 783d 4c2d 6ebe 6876 a73d 00bc 7cba
00000280: 2c90 2c3e 1cb2 6b3e c035 63bc e8dc 45be
00000290: 68ee a63d 1036 003e 8041 833d 7461 2e3e
000002a0: b0c3 29be 301b be3d 38a0 303e 98db 1bbe
000002b0: 38f3 4fbe 4c3e 613e 50ab 743e 206e dd3c
000002c0: 40a0 4abd acc0 4e3e 508a 41bd 2044 1e3e
000002d0: 90f5 67be c0b5 dabc a45f 09be b8e5 76be
000002e0: 545c 543e a41a 10be 28aa bc3d e49c 0d3e
000002f0: 100b 933d f092 fbbd 8441 51be d0f0 39bd
00000300: 9cd9 5bbe 6061 9b3c a02d 56bd 909f 11be
00000310: 30d3 6d3d 80ea bc3b 404d 9d3c c87e ad3d
00000320: c038 6bbd d0f8 f43d d436 74be 6897 63be
00000330: 402b 973c 504d 3cbd 149a 243e b825 483e
00000340: 7c14 023e 002a 203c 408f 99bd 80f9 9cbc
00000350: e046 bd3d 5097 f93d 20bd e23c 50b7 0ebe
00000360: 7086 d13d 4873 ec3d 007d bebb 9061 573e
00000370: 806a cbbc 2086 f2bd f0ae edbd 6cf6 173e
00000380: 1cb7 65be d05f 5c3e a0ce 20bd 0852 efbd
00000390: f03c 37be e83d 423e 40a0 7d3d 5ca8 743e
000003a0: 6829 d9bd c00c f63d 28f9 063e 3c40 44be
000003b0: c00e 1ebd 788f 6cbe f8a8 b53d 9034 603d
000003c0: 800a b93d 9469 3b3e f006 f43d f4d1 50be
000003d0: ec7e 1dbe 60aa f23d 18c8 983d 5813 a5bd
000003e0: 786e 233e 70fa bb3d 9021 18bd 1c20 52be
000003f0: 8024 9b3d 9854 38be c021 eebc 0088 c33b
0.101228 -0.23487538 0.09898938 -0.07892812 0.12846714 -0.18957376 0.031132042 0.19875962
-0.11879426 -0.06664199 -0.039176296 0.14982295 0.109017484 0.2284081 -0.08842722 -0.189646
0.21399906 0.06893349 0.034567207 -0.16169278 0.17946349 -0.06364753 0.02402178 -0.07832852
-0.10086657 -0.14407349 -0.029394845 -0.17677045 -0.16836691 -0.18189977 -0.19463392 -0.07581889
0.03896893 -0.06019658 0.12172351 -0.16831653 0.09801369 -0.2059605 -0.19078958 -0.071519546
-0.023573697 -0.13795304 -0.12816313 0.14946611 0.029378362 0.250186 -0.07996555 0.093030214
-0.11500854 -0.10647285 0.030893922 -0.20941389 0.19995013 -0.12602144 -0.008793776 0.17009918
-0.004137099 0.1274106 -0.117069855 0.053638853 -0.07914317 0.1314774 0.0726139 0.014486671
-0.20106989 -0.22650094 -0.17265421 0.20378059 -0.014012595 -0.036305904 -0.036012113 -0.20800978
0.2289229 0.20271116 0.0690364 -0.17272907 -0.11126991 -0.087378085 -0.05621791 -0.070997715
0.07270564 -0.05556166 0.06547044 -0.10195404 -0.03969443 0.074034095 -0.07959843 0.13204564
-0.01759771 0.07170117 -0.04770298 -0.0016822951 0.18675053 0.2285275 0.15492094 -0.0731994
-0.14244592 0.07360237 0.13079704 -0.17671707 -0.116136335 0.08885739 0.011549473 0.0003760576
0.15011907 -0.10542507 -0.0049090832 0.037865467 -0.2547552 -0.029875847 -0.15273796 -0.20351958
0.022894979 0.12796062 0.13702011 -0.00032277164 0.03611198 -0.026059091 -0.22297315 0.22428703
0.10869801 -0.019805936 -0.2095051 -0.066034965 0.1326297 0.23931082 0.1979956 0.15187815
-0.03805971 0.19267565 -0.1219635 0.1314184 0.049354613 -0.0007728934 0.08018005 -0.059954584
0.04253322 0.23102486 0.13870227 0.11070335 0.10695982 -0.19171864 -0.16099596 0.05698055
-0.18877196 0.010378957 -0.17025244 -0.17232281 0.04820299 0.056917667 -0.21614492 0.21064162
0.17195535 -0.23612487 0.006912291 -0.13134646 0.060762703 -0.23259467 0.08176881 -0.00096410513
0.16851872 0.23017162 -0.0138677955 -0.1932255 0.08150941 0.12520623 0.064089775 0.17029363
-0.16578555 0.09282529 0.17248619 -0.15220487 -0.20307624 0.2199642 0.23893476 0.02703005
-0.049469233 0.20190686 -0.047251046 0.15455675 -0.22652268 -0.026697993 -0.1341539 -0.24111068
0.20738345 -0.14072663 0.09212142 0.1382938 0.071798444 -0.122838855 -0.20435148 -0.045395672
-0.2146973 0.01896733 -0.052289605 -0.14221025 0.058062732 0.0057652593 0.019201875 0.08471447
-0.057427168 0.1196152 -0.2384904 -0.22225726 0.01845324 -0.04597217 0.16074401 0.19545639
0.12703127 0.009775639 -0.07498026 -0.01916194 0.09242034 0.12187064 0.027678072 -0.13937116
0.1023072 0.11545426 -0.005813241 0.21033311 -0.024831057 -0.118419886 -0.11605632 0.14840096
-0.22433132 0.21520925 -0.039259553 -0.11685568 -0.1789434 0.18968928 0.061920404 0.23892349
-0.10603601 0.120141506 0.13180983 -0.19165128 -0.038588285 -0.23101604 0.08870119 0.054737628
0.09035206 0.18301994 0.11915386 -0.20392591 -0.15380448 0.11848903 0.0746004 -0.0806033
0.15960109 0.091786265 -0.037141383 -0.20520061 0.07575321 -0.1800102 -0.029068828 0.00596714

sequential/dense_2/MatMul f4 [1, 32]
00000000: 48ea 173e d8f9 d0bc a89e d03e 38a8 51bd
00000010: 784d bdbe c4f5 a63e 0155 77be b003 ae3e
00000020: 8b92 c83c d4e0 c63e 7532 04be 6f41 c2be
00000030: 6c1a bcbd 7498 173c 9c59 b8be 9fbc b6be
00000040: 993b 5c3e 5138 6c3e 184d 013e ce44 9fbe
00000050: e4d5 c8bd 8ab8 6ebe 0468 c9bd fab7 7b3d
00000060: 7ebb 993e 12c6 b7be 00b9 313c 24fd e13d
00000070: 13c7 9fbe c4f0 2c3e 64c0 a9be 49bb 05be
0.14835465 -0.02550976 0.40746045 -0.051185817 -0.36973166 0.3260938 -0.2415352 0.33987188
0.02448394 0.38843405 -0.12909873 -0.37940547 -0.09184727 0.009252656 -0.36005867 -0.3569078
0.2150711 0.23068358 0.12627065 -0.3110718 -0.098064214 -0.23312584 -0.098342925 0.06145475
0.30025858 -0.35893303 0.01084733 0.11034611 -0.3120657 0.1688872 -0.33154595 -0.13059725
