app/src/main/ml/healthcare_cost_model (1).tflite (tflite, 6208 bytes, 6 tensors)

arith.constant f4 [22, 16]
000000 38 6e 3f bf 8e af 2c 3e a1 3f f4 3d 00 af aa be
       -0.74777555 0.16863844 0.11926199 -0.3333664
000010 30 b0 42 3d 21 67 0a be 88 6c 39 be d2 28 a5 be
       0.047531307 -0.13515903 -0.18107808 -0.32257706
000020 30 96 4b bd 9a ed b7 be 83 c2 8d 3d 6a 14 ae be
       -0.049703777 -0.35923463 0.06921866 -0.3399995
000030 ff e6 c9 be eb 91 8f 3e 22 c7 a6 be 8f bc d1 be
       -0.3943405 0.28041014 -0.325738 -0.4096417
000040 a7 5d 9d be 71 6e 0f 3d c7 86 7b 3e a6 4a 07 be
       -0.30735514 0.035017435 0.24563132 -0.1321207
000050 cf f2 07 be 16 16 10 bf da 65 09 bf 89 78 83 3e
       -0.13276218 -0.562837 -0.5367104 0.256779
000060 02 45 69 3e 13 f6 9b bd 48 16 1a bf 36 45 e6 3d
       0.2278023 -0.07615294 -0.6019025 0.1124367
000070 23 32 e7 be 1b 6b 4d 3e e1 87 d7 be 58 b9 45 be
       -0.4515544 0.20060389 -0.42095855 -0.19308984
000080 d4 68 25 be 30 d7 d7 bd d8 2a 1e 3e b6 2f bf be
       -0.1615327 -0.10539091 0.15446031 -0.37341088
000090 57 72 29 3e 21 98 93 3e 6e 96 e3 bd 1f 3e 06 be
       0.16547523 0.28827003 -0.111126766 -0.13109635
0000a0 48 67 e7 bd e7 68 b5 3e cd e0 91 3e 15 41 8b be
       -0.11298996 0.35431597 0.28491822 -0.2719809
0000b0 49 45 81 be 1f 9e 2c bf 04 3b db 3d 3c 1d 4d bf
       -0.25248173 -0.67428774 0.10704616 -0.80122733
0000c0 0a 5b 9b be 48 84 c7 be fb f2 ea be 9b 38 a4 bd
       -0.30342895 -0.3896811 -0.45888504 -0.08018609
0000d0 42 1c 93 be 79 5a d0 be 34 26 90 ba c5 bb d6 bd
       -0.28732497 -0.40694025 -0.0010997714 -0.10485033
0000e0 5e f6 0a 3e f6 57 0a bf b6 28 75 be a6 16 01 3e
       0.13570544 -0.5404047 -0.23941311 0.12606296
0000f0 91 ec 69 bd d3 d0 da be 46 ce 33 be 0e b0 d3 be
       -0.057110373 -0.42737445 -0.17559156 -0.41345257
000100 98 f1 cd be 4c 46 20 bd 9c d4 f5 3e f6 12 9f be
       -0.40223384 -0.03912954 0.4801377 -0.31069154
000110 18 ad f0 be 97 4f 85 be a8 c5 b9 3c 56 f8 6e be
       -0.4700706 -0.26037285 0.022677258 -0.2333692
000120 6e 67 36 3e e7 cd 4a bf 3b 76 18 bf 7e 28 06 bf
       0.17812893 -0.7922043 -0.59555405 -0.52405536
000130 0f 27 2a bf 0d 82 28 be 67 06 de bd 6c 47 e8 3e
       -0.6646585 -0.1645586 -0.10841065 0.4536699
000140 62 1b 9a 3d 5d 7d 08 3e 74 93 77 3e 50 e8 bb bd
       0.07524754 0.13329072 0.24177343 -0.091751695
000150 58 be df 3d 4c 26 87 3e 63 19 7a be b9 7c 73 3d
       0.10924977 0.26396406 -0.24423747 0.059445117
000160 60 04 47 bd 49 2e cd 3d 8a 81 37 bf de 52 a6 be
       -0.048588157 0.10018594 -0.71682036 -0.32485098
000170 14 51 4c bf a5 bc 87 bd 5b 17 1b bf 9c 90 f9 be
       -0.79811215 -0.06627778 -0.6058251 -0.4874314
000180 29 99 23 bf 1c d2 11 be ba 38 e3 3e 48 b7 df be
       -0.6390558 -0.14240307 0.44379216 -0.4369452
000190 55 4b 44 3e 14 ec e8 be 4d 9f 8d be 33 d0 89 3e
       0.19169362 -0.45492613 -0.276606 0.26916656
0001a0 b8 c9 6d 3d a8 16 33 bf f4 d9 f9 3c 4d b6 c7 bd
       0.058053702 -0.69956446 0.030499436 -0.09751568
0001b0 ed 8b ce be 98 fd 4e 3d 63 eb 0a bf 26 b4 29 bd
       -0.4034113 0.050534815 -0.5426542 -0.04143157
0001c0 33 9c 19 bf b4 96 8f be a0 fb a5 3d 8a b0 41 3e
       -0.60003966 -0.28044665 0.08104634 0.18915
0001d0 74 f6 2c be 0e 83 3d 3d 94 ff d3 be be 2c f9 bb
       -0.1689089 0.04626756 -0.41405928 -0.0076042106
0001e0 5a d2 3e 3e 44 4f 2c bf 12 ab 0a be ec 1a c9 3e
       0.1863493 -0.6730845 -0.1354182 0.39278352
0001f0 69 8a 39 be b4 c5 83 3e 7d 68 b6 bc 82 26 38 3b
       -0.18119206 0.25736773 -0.02226662 0.0028099124
000200 0d 95 ee be 87 72 1c bf 0c a9 48 3e 6a c4 33 3e
       -0.46598092 -0.61112255 0.19595736 0.17555395
000210 1f 00 69 be 01 ca 11 bf 39 9a 1b bf 0d 2f 89 3e
       -0.22753952 -0.5694886 -0.607822 0.2679371
000220 44 e6 94 bd 62 8f d5 be 20 60 0e bf eb c3 25 be
       -0.07270482 -0.41710955 -0.55615425 -0.16188018
000230 3d df 0f bf c5 52 b5 3e 12 0c fd 3e 2a 63 82 3e
       -0.5620001 0.3541471 0.4942327 0.2546628
000240 6e fe c3 3e 7c b8 24 be 37 02 20 3e 6a e2 2a bf
       0.38280052 -0.16086 0.15625845 -0.6675173
000250 2d 87 33 be 8c 95 d3 bd ce da 89 3e 21 37 ac be
       -0.17532034 -0.10331258 0.26924747 -0.3363581
000260 7e 8c 76 3e 38 24 a7 3e 22 32 4a be 72 0a 3d 3d
       0.24077031 0.3264482 -0.19745687 0.04615254
000270 e1 91 6e bf 45 4c 03 bf 62 60 90 3e 25 39 1a bf
       -0.93191344 -0.51288253 0.28198534 -0.60243446
000280 5e 7c 11 bf 91 ef 9d be 31 98 43 3e d0 5c d4 3d
       -0.56830394 -0.30846837 0.19101025 0.10369265
000290 ba 36 fd bd a0 b3 54 bf 5c da 15 bf a0 83 6e 3b
       -0.12363954 -0.83086586 -0.58536315 0.0036394373
0002a0 ec d4 d4 bd ef d5 e0 be 09 02 22 bc 05 cd a1 3e
       -0.10392174 -0.43913218 -0.0098881805 0.3160173
0002b0 4c 12 27 bf 09 2f 6c 3d 4c 09 1d bf 89 c4 cc 3e
       -0.65262294 0.057662044 -0.6134231 0.39993694
0002c0 1c d4 23 3e ef 65 65 be e9 19 db be 4c c0 94 39
       0.15998882 -0.22402166 -0.42793205 0.00028372032
0002d0 13 58 2e 3e 5e 61 06 3f 5c f8 c0 be 72 00 b2 be
       0.17025785 0.5249232 -0.37689483 -0.34765965
0002e0 1e ef 3d be 67 bb 2b 3e e7 73 03 bf 2f 5e 52 bc
       -0.18548247 0.16770707 -0.5134873 -0.012839838
0002f0 c9 e2 5f bf d7 39 ea be 1c 01 2c bf 1f df 04 be
       -0.8745542 -0.45747253 -0.6718919 -0.12975739
000300 c7 88 e6 3e 03 9a 0c be cd 2b 16 3c ae 72 a2 3e
       0.45026228 -0.13730626 0.009165716 0.3172812
000310 96 77 d2 be 1e 05 23 bf 6a 28 fb 3e 7c 5c 93 3e
       -0.41106862 -0.63679683 0.4905427 0.28781497
000320 b2 af c4 be b5 29 4c be 82 9a 4f 3d 33 be c0 3e
       -0.38415295 -0.19937785 0.05068446 0.3764511
000330 61 91 17 3e f2 aa b1 be e5 d7 81 3e 4d 67 60 be
       0.14801551 -0.34700733 0.25360027 -0.21914406
000340 f5 ec 5d bb e8 d6 06 bf 0c b2 a8 3d f7 73 fd 3d
       -0.0033863161 -0.5267167 0.08237085 0.12375634
000350 e2 3d cc 3e d5 0c fa be 7f 08 c2 3e f5 ef bb be
       0.39890963 -0.48837915 0.37897107 -0.3670651
000360 44 53 7b be 57 15 ca bc 76 d8 ae 3e 9d 9d 55 3d
       -0.24543482 -0.024668379 0.34149522 0.052152265
000370 17 3d d5 3e f9 68 02 bf 03 66 ed 3d 66 f4 9f be
       0.4164817 -0.50941426 0.11591723 -0.3124115
000380 2c 69 77 3c 73 9f 2d 3e dd f0 46 bf 77 40 1f bf
       0.0151007585 0.16955356 -0.7771128 -0.6220774
000390 b3 b4 d6 3d 84 33 74 3e 0a 8e 3d bf 7d e9 b8 be
       0.104836844 0.23847777 -0.7404486 -0.36115637
0003a0 29 ee 82 3e ef e1 62 3e 24 00 18 be e3 41 d4 bd
       0.25572327 0.221565 -0.14843804 -0.103641294
0003b0 7e 84 cc 3e 40 b4 4d bf b3 29 55 3d a3 fa ec be
       0.39944834 -0.80353165 0.05204172 -0.4628497
0003c0 8d 8e 0a bf 19 58 ee 3e 90 9a 54 bf 49 90 55 3e
       -0.54123765 0.46551588 -0.83048344 0.20855822
0003d0 be a8 38 3e a5 ce 13 3f 39 40 10 bd 25 f5 1e bd
       0.1803312 0.5773719 -0.035217497 -0.038808007
0003e0 fb 3f 9a be 52 ff 16 bf df 5a e1 be 30 45 e2 be
       -0.30126938 -0.5898334 -0.44014642 -0.4419341
0003f0 30 0f 53 be 47 cc 42 bf 1a 67 0e bf b2 fa 5d bd
       -0.20611262 -0.7609295 -0.5562607 -0.05419416

arith.constant1 f4 [16, 32]
000000 9f 45 18 bf 98 ff 10 3f 24 7c 44 3e ec 6c 32 be
       -0.59481233 0.56640005 0.19187981 -0.17424363
000010 99 5a e8 be b7 cc 24 3e bb 82 c3 be ec ff 98 3e
       -0.4538162 0.16093718 -0.38185677 0.29882753
000020 85 59 47 be 5b 98 e1 3e de a3 22 be 1e a6 cc 3b
       -0.19467743 0.4406155 -0.15882823 0.0062453886
000030 54 f0 8f be 55 a7 3c be 28 2b 99 be 75 74 e2 3e
       -0.28113043 -0.18423207 -0.29915738 0.44229475
000040 0f 6a e0 3d ad 72 36 bd a5 d1 f8 3e d8 3d 2a 3e
       0.10957729 -0.044542957 0.48597446 0.16625154
000050 7a bd 5e 3c 51 7b cf be 85 fd 63 3e 29 89 b1 3e
       0.013594979 -0.4052377 0.22264679 0.34674957
000060 34 b1 0f 3e 7a f6 2d 3d c0 3f c4 3e 4c 8c 4d 3e
       0.14032441 0.042471386 0.38329887 0.2007305
000070 8b 75 4c be 89 e3 f8 bd 7a c0 4d be 22 c1 9a be
       -0.19966714 -0.12152774 -0.20092955 -0.30225474
000080 36 52 c5 3e 8e 16 61 be 8e eb d2 3e a0 f3 12 3f
       0.38539284 -0.2198126 0.4119534 0.5740299
000090 f7 86 9c 3e 57 b5 10 be 3e 3a d5 bc dc 90 4f be
       0.3057172 -0.14131676 -0.026028749 -0.20270103
0000a0 fe 1c 56 be eb d9 16 3f 24 5e 76 3d 65 a2 47 3e
       -0.20909497 0.58926266 0.060148373 0.19495542
0000b0 93 4e c8 3e df 45 96 be 22 6d 1a be 70 4f f5 3e
       0.39122447 -0.29350182 -0.15080693 0.47912169
0000c0 db ed 65 be 76 61 c8 be 54 55 e4 bd 51 26 ac 3e
       -0.22454016 -0.39136857 -0.111490875 0.33622983
0000d0 72 c3 aa 3e bb dd 8e 3e a1 be a2 3e 36 f0 9d be
       0.33352238 0.27903542 0.31786063 -0.3084733
0000e0 b3 19 1e 3e 73 20 14 3e eb 88 75 3e 24 1c ae 3d
       0.15439491 0.14465503 0.23978011 0.08501461
0000f0 7d c6 83 3e 49 6c a8 be 2d 39 a4 be 96 d0 89 3e
       0.25737372 -0.32895115 -0.32074872 0.2691695
000100 a6 db f5 3e 34 5b 02 3e 90 a9 07 bd 40 5f 59 bd
       0.4801914 0.12730104 -0.03312069 -0.053069353
000110 48 ac e7 3e 5b 82 ea 3e 61 4b 9d bb 4a b8 a3 bd
       0.45248628 0.45802578 -0.0048002456 -0.07994135
000120 43 7a b2 3e 26 b9 7a 3e 76 23 c9 be b1 08 f6 3d
       0.34858903 0.24484691 -0.39284867 0.120133765
000130 ed d2 c0 be 1b 45 93 be 99 bf d9 bd 49 16 d7 3e
       -0.37660924 -0.2876366 -0.106322475 0.4200919
000140 d9 a3 73 be 3a 48 e8 3e d5 0b c1 bd cf 79 1d 3e
       -0.23792972 0.45367604 -0.09426085 0.15378498
000150 82 0d 4f be 81 1d 88 3e fa 1c 0c be d5 ea 6f bd
       -0.20219997 0.2658501 -0.13682929 -0.058573563
000160 b7 4b 0d 3f 5d 84 6e bd 30 fd d8 3e 4c ea 09 3f
       0.55193657 -0.0582317 0.42380667 0.53873134
000170 e9 21 fa 3d 42 7d da 3e 3d de b7 3e 7e 99 72 3e
       0.12213499 0.4267369 0.35911742 0.23691365
000180 36 c6 ed be 02 b4 21 3d b3 a7 7e be 8a cc 3c 3e
       -0.46440285 0.03947831 -0.2486866 0.184374
000190 4b cc a7 be a7 55 d3 be 86 c2 73 3e 7d 58 19 be
       -0.3277305 -0.41276285 0.23804674 -0.14975162
0001a0 87 b1 93 be 6a fc 7f be ed e8 8f be 2e 27 b3 3e
       -0.2884638 -0.24998632 -0.28107396 0.3499083
0001b0 1c d1 8c be e2 9e 24 3e 4c f2 63 3c 30 e0 c7 bc
       -0.27503288 0.16076234 0.013912749 -0.024398893
0001c0 9e 9c 4a be c7 2a de be 7e 14 58 3e 13 c0 e2 be
       -0.19786307 -0.43392012 0.21101567 -0.44287166
0001d0 5d f0 11 be 09 ab 86 3e 9f 4b 5f 3e 84 49 c1 bd
       -0.14251848 0.26302364 0.21806191 -0.0943785
0001e0 95 4f 85 3e c4 2e 36 3d 5c f2 ad be 9b e0 04 3e
       0.2603728 0.044478193 -0.33973968 0.12976305
0001f0 a4 1b 05 bf 9f fd 35 be 5c db 04 3e 0d 0b e2 bd
       -0.519953 -0.1777253 0.12974304 -0.11037264
000200 cb 1f 24 3e 81 03 37 3e 47 56 fd bd ef 39 45 3e
       0.16027753 0.1787243 -0.12369972 0.19260381
000210 8b d1 69 3e 52 1e 8b 3e f5 eb 98 bd 3f 53 ce 3d
       0.2283384 0.2717157 -0.0746688 0.10074472
000220 e2 7f a0 3e 4f 4b af be 81 7a ea bd e4 26 5b 3e
       0.31347567 -0.34237143 -0.11449147 0.21401554
000230 72 5d eb bc 86 58 1f 3e 04 ae 29 3d 0a 5d 57 3d
       -0.028731082 0.15561113 0.04142572 0.052578963
000240 fd f8 c7 3d 30 84 69 be cf df bb bd 95 98 a1 be
       0.097642876 -0.22804332 -0.091735475 -0.31561723
000250 d5 fe 22 be f8 8e a6 be fa 3c b1 be 09 fb 4c bc
       -0.15917523 -0.32530951 -0.34616834 -0.012511023
000260 7c e3 8e 3e 6d 92 95 3d 05 db a3 be c5 9e 3a be
       0.27907932 0.07303319 -0.32003036 -0.18224628
000270 be f7 7c be 8d 80 4e be 67 fd 45 be bd ef f2 bd
       -0.24703881 -0.20166226 -0.19334947 -0.11862133
000280 ae 26 4e be f3 0c ca 3e 3a 08 1d 3e 31 46 8d 3e
       -0.20131943 0.39463004 0.1533517 0.27592614
000290 c6 b3 9c 3d 7e 8e ac bc 72 86 de be 4e 30 0b 3f
       0.076514766 -0.02106404 -0.4346195 0.5437058
0002a0 44 b1 b4 be d8 a6 4b 3e c9 f5 04 3f 8a 27 0e be
       -0.35291493 0.19887865 0.5193754 -0.1388227
0002b0 73 e8 5a 3e a5 8a 00 3f 53 7b 1a 3f 81 d5 9c bd
       0.21377735 0.50211555 0.6034443 -0.0765791
0002c0 ce 32 cc bd d1 bd cb 3e ba 8e f9 b9 99 81 19 3f
       -0.09970628 0.39793256 -0.0004759932 0.59963375
0002d0 6f a8 79 3e 77 e5 b0 be 73 17 38 3f ca 57 80 3e
       0.24380659 -0.34550068 0.7191078 0.25066978
0002e0 75 1f a8 bd 06 b2 ad be 44 54 d9 3e f5 14 9d 3d
       -0.08209125 -0.33924884 0.42447102 0.07670013
0002f0 23 84 d6 3e 0d e8 2a be 8c 95 92 be 6a 94 e9 bd
       0.41897687 -0.16690083 -0.2862972 -0.11405261
000300 12 64 8e be 0c be 02 3f ed 89 36 3e c0 98 4d 3e
       -0.27810723 0.5107124 0.17826052 0.20077801
000310 f8 0f e3 be 61 90 0e bf 76 37 7d 3e 41 86 f0 bd
       -0.4434812 -0.55689055 0.24728188 -0.11744357
000320 97 6f be 3d 67 4f 1d be 1b 98 c2 be 5f e2 dc 3e
       0.09298628 -0.15362321 -0.38006672 0.43141457
000330 c5 28 07 bf ac 85 f9 3d 06 55 f1 bd bd ad f6 be
       -0.52796584 0.12183699 -0.11783795 -0.48179427
000340 a5 c2 9d bc 18 2a d4 be 7c 2e d7 bb 5d 23 cf be
       -0.019257853 -0.41438365 -0.0065668207 -0.40456668
000350 9e 2b 66 be 19 93 a3 3e 93 5e 05 3e e9 7b 95 be
       -0.22477576 0.31948164 0.13024358 -0.29196098
000360 28 02 a7 3e 1c 3e 4a be a6 c5 11 be 58 9a d0 3e
       0.32618833 -0.19750255 -0.14235553 0.40742755
000370 c6 6a 50 be 2d e5 c3 3e 49 f2 b0 be 04 9a 3d 3e
       -0.20353231 0.38260785 -0.3455985 0.18515784
000380 7e 8c 55 be b6 9b b7 be 29 06 03 be 9d a5 4d be
       -0.20854375 -0.35860986 -0.12795319 -0.20082708
000390 01 da a4 3d e9 e8 6b be 13 89 bd be b4 99 e1 3d
       0.080493934 -0.23038067 -0.37018642 0.11015645
0003a0 a0 58 a0 bc 58 e2 75 3e c7 b6 8c 3e 00 6a 2c 3c
       -0.01957351 0.24012125 0.27483198 0.010523319
0003b0 81 8e a4 be 4a 2e 52 3e 0a b0 ed bd 61 b9 75 be
       -0.32139972 0.2052547 -0.116058424 -0.23996498
0003c0 eb b8 9e be de ae e0 3d a7 5c 46 be dd 47 9d be
       -0.31000456 0.10970853 -0.19371282 -0.3071889
0003d0 24 00 99 bd e4 13 d5 3d d5 57 29 be 53 ca 88 bd
       -0.0747073 0.104041845 -0.16537412 -0.06679215
0003e0 e2 b9 ac be e8 69 04 3d 40 3a eb bc 80 df 4b 3c
       -0.33735567 0.032327563 -0.0287143 0.012443423
0003f0 3f f8 8b 3d b5 c7 bf be 60 dc ac be f8 27 7a 3e
       0.068344586 -0.37457052 -0.33761883 0.2442931

arith.constant2 f4 [22]
000000 d6 c8 11 3d c9 e2 18 3d 99 c9 48 bd 92 51 87 be
       0.035591923 0.037325654 -0.049020384 -0.2642942
000010 96 be ef 3c 98 07 9f bc 4f e3 7d 3d 6c d9 5f bd
       0.029265683 -0.0194128 0.061984356 -0.05465071
000020 ed 3e 90 bc 9d 04 98 bd 44 fd ab 3d 4c 40 c6 3d
       -0.01760813 -0.07422755 0.08397916 0.096802324
000030 32 89 53 bd b1 94 a3 bc c1 1f 90 bb b7 66 54 3d
       -0.05164451 -0.019968363 -0.0043983166 0.05185577
000040 fc 6b bc bd 26 00 e6 3d eb da 59 3d 2b 66 7b be
       -0.09200284 0.11230497 0.053187292 -0.24550693
000050 c2 9c 10 3d 5a a5 7e be
       0.035305746 -0.24867764

arith.constant3 f4 [16]
000000 b6 3e 0a 3e 59 35 c6 3d f8 8e 1a 3e d1 ac 2a 3d
       0.13500485 0.09678144 0.15093601 0.041668717
000010 9e 22 ba bc 01 8c 7b 3e ea 98 b6 3d 1d 4c 33 bd
       -0.022721585 0.24565126 0.08915885 -0.04377376
000020 00 00 00 00 e9 50 10 3e 95 7b d5 3c 0c c2 bc 3d
       0.0 0.14093365 0.026059905 0.09216699
000030 a4 99 2a 3e dd af 75 3e b2 fe 5f 3d d0 b2 5c 3d
       0.16660172 0.23992868 0.054686256 0.053881466

sequential_1_1/dense_3_1/Add/ReadVariableOp f4 [32]
000000 fc 82 82 3e a2 c3 a0 3e 09 2c 69 3e 8a 5e fb bc
       0.25490558 0.31399256 0.22770704 -0.030684728
000010 bb 40 91 3e dd 35 a6 3d aa 8e 99 bd 73 2f d6 3d
       0.28369698 0.08115742 -0.07497914 0.10458269
000020 54 41 c3 bd 42 14 88 3e 18 12 7d bc d5 47 0c 3d
       -0.09533945 0.26577955 -0.015446208 0.034248192
000030 fd 00 92 bd 1a 2b 3c 3e 43 5a 66 3e 78 cc 4b 3e
       -0.07129095 0.18375817 0.2249537 0.19902217
000040 90 91 12 be fa 71 fc 3d f0 ec 53 3e a7 1e 4e 3e
       -0.1431334 0.12326427 0.20695853 0.2012888
000050 6a d6 9e 3d 0d 7b 4e 3e 0f 60 80 3e 91 f3 64 3d
       0.0775574 0.20164128 0.25073287 0.055896346
000060 af f6 c8 3d 20 fc 36 3e 39 26 9b 3d 96 ce d1 3d
       0.09812676 0.17869616 0.0757565 0.10244481
000070 47 f7 c0 3e 67 83 05 3e f3 5b 21 3c 4e 8a a7 3c
       0.37688658 0.13038407 0.009848583 0.020451691

sequential_1_1/dense_3_1/MatMul f4 [32, 3]
000000 2c 12 98 be 60 2c e1 3e 3e 6c da be d1 dd 30 3f
       -0.29701364 0.43979168 -0.42660707 0.69088465
000010 00 4d d6 bc c7 1b 0e 3e 63 e5 1d 3d 94 34 8d 3e
       -0.026159763 0.13877784 0.03854884 0.27579176
000020 7f f8 21 3f 82 95 21 be a8 9f 86 be 67 9a 8d be
       0.632698 -0.15779689 -0.26293683 -0.27656862
000030 c8 42 98 be ee d2 de 3e 61 a5 ed be 81 39 ea 3c
       -0.2973845 0.43520302 -0.46415237 0.028591873
000040 5a 32 06 3f 11 31 40 be d4 69 44 be eb 0e 5e 3e
       0.5242058 -0.18768717 -0.19180995 0.21685378
000050 7c 50 59 be 1e 2b d1 bd 22 63 95 be ee 25 94 3e
       -0.21222109 -0.10213302 -0.29177195 0.28935188
000060 c7 c8 2d be 5e 04 01 3f e8 45 05 be 98 aa 0f 3e
       -0.16971122 0.5039729 -0.13014948 0.1402992
000070 ce c7 1f bf 63 59 22 be 36 78 96 be 74 08 6b 3e
       -0.6241425 -0.15854411 -0.2938859 0.22952443
000080 73 62 f5 3e 73 a5 d3 3e 7d c4 b1 bd d2 f5 ef 3e
       0.47926673 0.41337165 -0.08680055 0.46867234
000090 1d 3b 8a be 88 de 4c 3e 10 f5 b3 3e 28 89 12 be
       -0.26998225 0.20006764 0.35147905 -0.14310133
0000a0 1f 77 93 3e 6e c1 ca 3e cc d9 de be ac ca ab 3e
       0.2880182 0.396007 -0.4352554 0.33553064
0000b0 4c d7 0c 3f 35 49 f4 be e2 7b 53 be 43 df d0 be
       0.55016017 -0.47712103 -0.20652726 -0.40795335
0000c0 a1 21 a8 3d 66 b9 00 bc 59 21 0e bd 2c 07 b1 3e
       0.08209539 -0.007856702 -0.03469977 0.34575784
0000d0 ee 37 de 3e c5 1d 2d bf 29 ca 45 3e ca bb db 3e
       0.43402046 -0.6762355 0.19315399 0.4291671
0000e0 b6 b1 08 3f 46 66 06 bf 3c af 60 be 9a 34 bc 3e
       0.53396165 -0.52499807 -0.21941847 0.36758882
0000f0 1c 7f b9 bc b5 47 9f 3e d2 b0 c2 3e c7 5f 6c be
       -0.022643618 0.31109396 0.38025528 -0.23083411
000100 cb 73 cc 3d e3 64 e1 be ac f2 81 be e5 db 07 bf
       0.09983023 -0.44022283 -0.25380456 -0.5306991
000110 68 1e 6f 3e dc ec 07 bf d6 d0 9c bd 59 f2 40 3d
       0.23351443 -0.53095794 -0.0765702 0.04710612
000120 8a c9 12 3f 1c 33 dd be 93 1b f6 3e 68 93 fb 3e
       0.57338774 -0.43203056 0.48067912 0.491359
000130 1d 2b 02 3f 65 22 62 3e 1f ec 38 be 89 dc db be
       0.50847036 0.22083433 -0.18058823 -0.42941692
000140 b4 89 8e 3e 3e 32 90 bd 44 13 27 bf e0 64 06 3f
       0.27839434 -0.07040833 -0.6526377 0.52497673
000150 dc 22 11 bf 9e 1d 46 bf 6c 75 07 bd 52 14 9f 3e
       -0.56693816 -0.7738894 -0.033070967 0.3107019
000160 96 5b ca be 7b d5 35 3e cc a4 59 3e ee f9 d8 3e
       -0.39523 0.17757218 0.21254271 0.4237818
000170 8b 7b eb bc 13 21 15 3e 1d a6 4c 3e c2 33 ef be
       -0.028745433 0.14563398 0.19985242 -0.46719176
